examples/hello_world_arcada/example_models/cosinemodel.tflite (tflite, 2640 bytes, 5 tensors)

sequential_3/dense_7/MatMul/ReadVariableOp/transpose f4 [16, 1]
00000000: 3b8d 87be 24b1 383e 76d1 3cbe e907 de3e
00000010: 8483 4dbe a074 a7bd bdc2 543e 92e0 8d3e
00000020: cef8 54be bf0c a0be 5af0 813e 0536 673e
00000030: 7a9f f7be ae62 a7be c315 c93e 50c5 e439
-0.26474938 0.18036324 -0.18439278 0.4336541 -0.200697 -0.08176541 0.20777412 0.27710396
-0.20798036 -0.31259724 0.25378686 0.225792 -0.48363858 -0.32692474 0.39274415 0.00043634558

sequential_3/dense_7/MatMul_bias f4 [16]
00000000: 0000 0000 b81c 2dbf 0000 0000 a13e 97bd
00000010: 0000 0000 0000 0000 2ab1 8abe 7539 743e
00000020: 0000 0000 0000 0000 f0c7 07bf 90e7 e3bd
00000030: 0000 0000 0000 0000 7bf1 a4be 277d 17bc
0.0 -0.67621946 0.0 -0.073849924 0.0 0.0 -0.2708829 0.23850043
0.0 0.0 -0.53039455 -0.111281514 0.0 0.0 -0.32215485 -0.009246147

sequential_3/dense_8/MatMul/ReadVariableOp/transpose f4 [16, 16]
00000000: 14e6 84be fc7c fb3d 82c1 743e d7db 903e
00000010: d943 d43e c4b9 97be 0477 1dbe 69b3 d6be
00000020: 73e2 a8be c3e5 c43e 5e27 65be 2053 78bd
00000030: b424 c43d 7dfd d93e 3836 43bd cdad bdbe
00000040: f2c7 373e f06a 093f 3783 cd3e c03e 9738
00000050: 57e0 ab3e 2538 be3e 5639 8a3e 0bfd 8dbe
00000060: b5e7 b63e cf35 8b3e ac2e 143f 6f98 a53e
00000070: 983b 533d 5568 a43e 0068 ee3e fa44 993d
00000080: e710 45be a0f9 86be 45f6 7fbe 290f d2be
00000090: 5edd 8cbe d5ab 9f3e 5765 53be 2ee5 d23e
000000a0: e59c aa3e fe78 6c3e 3773 803d e57a b0be
000000b0: 3221 84be ac83 81bd c8fa 60bf 882d 0bbf
000000c0: 866a 063e 0596 76be 1e29 80be a7c3 ba3e
000000d0: b84f a4be 8c11 8ebe a6da c8bd 91e7 b23e
000000e0: 2450 cbbe 00df 39bb 4679 1bbd 7264 583e
000000f0: b57a cf3e 8e08 6d3e fb13 d1be 0b05 b3be
00000100: 5cd4 83be 54bc 363f 3147 d7be 18dc 5a3b
00000110: f063 be3c fd8a 8d3e edc9 933e f85d 9e3d
00000120: 0748 c43e 903c a03c adc3 b33d 7c44 95be
00000130: 3dda 8e3e 4447 86be 1f61 b63e 8fa9 803e
00000140: c199 60be 9d37 5d3f e0b1 7d3c c0cf bcbd
00000150: 32eb 94be e6ae c5be 3b95 9d3e 5521 fc3d
00000160: 5a41 1dbe 98bc 513d 27e5 b73e e500 cbbc
00000170: df7a bbbe d88d 693d c348 d7be 048d 61bd
00000180: c3d5 9f3e 8042 0cbd ccc6 a73d c652 b8be
00000190: 1fc1 b83e 4277 753e 5c34 8f3d 988a a9be
000001a0: 9ff3 54be 4acd a6be b413 05be e88a 6d3d
000001b0: d8a6 d1bd ef56 c6be ec21 c7be b267 6b3e
000001c0: f0a4 3cbd d533 d3bf d08c ea3c 89d8 c73c
000001d0: 6b65 a03e 29e3 9c3e a9a9 8dbb c2fe 3c3e
000001e0: 4e03 3c3e 2c4f 92bd 1e5b a2bd 515a 86bd
000001f0: 5df5 ba3e 58de dbbd 0796 a93d 72c9 8a3d
00000200: 441b 07be 9c24 06be db69 813e bc45 e8bd
00000210: 0cb4 b13d 14c8 b7bd ba18 1abe 4a6d a2be
00000220: b029 2bbe 5a81 4f3e b01e 7bbd 8048 c7be
00000230: d386 903e 28ba 9abd f845 04be 14c5 36be
00000240: 421a aabe 354e 21bf 23f2 be3e 66d8 d83e
00000250: 7a37 a3be 8a07 55be f042 a93e 611f e13d
00000260: 3bb0 d63e c019 14be a906 40be 1230 a0be
00000270: 05e5 c43e 9253 413e 1878 c53e adf9 04be
00000280: 00fe 43bc f5d5 cfbd 6615 b1be c983 b23e
00000290: f04d f9bc 1304 45be 3cc5 413e 6c15 8e3b
000002a0: b45a 813d 3ef6 acbe d44f 7f3e 2384 e9bd
000002b0: 6b3d 59be 76ee 3cbe e0b8 a63e 2b3b 5bbe
000002c0: 796f 91be a427 29bd c6d7 653e 5042 10be
000002d0: df9c 933e a90c d43e c9ca 94be 6c3c 953e
000002e0: 3310 b03e d7da 8a3e f8bb dabe 2104 7f3d
000002f0: 00ca bb3b 3ed3 d7be 3fc3 edbe 14db e73d
00000300: d800 6c3d cc2a bbbe d716 d23e d1d0 8c3d
00000310: 6ded cf3e 6076 063c 62f4 31bd e656 76be
00000320: b678 7dbe 862c c8be bea2 73be ef07 0abd
00000330: f689 1e3e 085b 843d 50a5 9d3e 683b 49be
00000340: f8c6 0abd 56d9 f8bd 6d92 91be 12d7 533e
00000350: ffb3 ad3e 9b60 8c3e 5faa 0bbd 91cf 913e
00000360: 2d5a c53e db17 c7be 8cbd 0bbf f02b e13d
00000370: c95c 933e f5b8 dbbe d2cf 473e a5b7 473e
00000380: b24d 483e 3201 96be a033 bdbe aee9 ed3d
00000390: 4a78 613e 06f8 5b3e 667d 2e3b 455e 753e
000003a0: ccfc 953d a92a 953e b3b9 b6be 0f0f 8a3e
000003b0: 12cb 733e 7884 3abe 3063 87bd 11fe 873e
000003c0: 12e1 583e d31e 7abd 5ff0 be3e 8c0c 4b3e
000003d0: 9c7f c33d ce0b 3f3e 37d5 a2be 3e58 273e
000003e0: f21c 423e 8b77 8c3e 6316 163d 3941 c23e
000003f0: 0884 2bbd c71f 883e f217 c9bd dec5 0fbe
-0.25956786 0.12279698 0.23901942 0.28292724 0.41458014 -0.29633915 -0.15377432 -0.41933754
-0.32985267 0.38456544 -0.22378299 -0.06062615 0.09577313 0.4257621 -0.04765913 -0.37046662
0.17947367 0.536788 0.4013917 7.211929e-05 0.33569595 0.3715221 0.2699687 -0.2773212
0.35723653 0.2718949 0.57883716 0.3234286 0.051570505 0.3211085 0.4656372 0.07483859
-0.19244729 -0.26362324 -0.24996288 -0.4102719 -0.2751264 0.31185785 -0.20644127 0.41190475
0.33322826 0.2309303 0.062719755 -0.3446876 -0.25806576 -0.063239425 -0.8788266 -0.5436635
0.13126573 -0.24080665 -0.2503137 0.36477396 -0.3209207 -0.27747762 -0.09807329 0.34942296
-0.3970958 -0.0028361678 -0.037957452 0.21132067 0.40523306 0.23147795 -0.40835556 -0.34964785
-0.25747955 0.71381116 -0.42046502 0.0033395346 0.023241013 0.27645102 0.28864995 0.07732767
0.38336203 0.019560128 0.087775566 -0.29153812 0.27900878 -0.26226246 0.35620973 0.25129363
-0.21933652 0.86412984 0.015484303 -0.09219313 -0.2908569 -0.3861 0.30777916 0.12311045
-0.15356961 0.051205248 0.35917017 -0.0247807 -0.3661718 0.05702004 -0.420477 -0.055066124
0.31217775 -0.034243107 0.08192214 -0.3600065 0.3608484 0.23971274 0.06992409 -0.3311355
-0.20796059 -0.32578498 -0.12995797 0.0579938 -0.10236901 -0.387382 -0.38893068 0.22988775
-0.046055734 -1.6500193 0.028631598 0.024395244 0.31327376 0.3064206 -0.0043232036 0.18456557
0.18360636 -0.07144007 -0.079275355 -0.06560195 0.36515322 -0.10735768 0.082805686 0.06776704
-0.13193995 -0.13099903 0.25276074 -0.11341426 0.08676919 -0.08973709 -0.15048495 -0.31724006
-0.16715121 0.20264187 -0.061308563 -0.389225 0.28227863 -0.07555038 -0.12917316 -0.17848617
-0.33223158 -0.6300996 0.3729411 0.423526 -0.31878263 -0.20803657 0.33058882 0.10992313
0.41931328 -0.14462948 -0.1875254 -0.31286675 0.38455978 0.18879536 0.38568187 -0.12985869
-0.011962414 -0.10148231 -0.34586638 0.3486617 -0.030432671 -0.19239835 0.18922895 0.00433605
0.063161284 -0.33781618 0.24932796 -0.11402156 -0.21214835 -0.1845034 0.32562923 -0.2140929
-0.2840536 -0.04129757 0.22445592 -0.14087796 0.2883062 0.4141591 -0.29060963 0.2914766
0.3438736 0.27120087 -0.42721534 0.062259797 0.0057308674 -0.42153352 -0.46438023 0.11321083
0.057617992 -0.3655609 0.4103305 0.06875766 0.4061083 0.008206934 -0.043445952 -0.24056587
-0.24753079 -0.3909647 -0.2379255 -0.033698972 0.15482315 0.06462675 0.30790186 -0.19651568
-0.033881158 -0.121508285 -0.28432027 0.20687512 0.3392639 0.27417454 -0.034098025 0.28478673
0.3854536 -0.38885388 -0.545861 0.109947085 0.28781727 -0.4291455 0.19512871 0.19503649
0.19560888 -0.29297787 -0.3695345 0.116168365 0.22018543 0.21481332 0.0026625036 0.23961742
0.07323608 0.2913411 -0.35688552 0.26964614 0.23807934 -0.18214595 -0.066107154 0.26561025
0.21179608 -0.061064553 0.37292764 0.19829005 0.09545824 0.18656847 -0.31803295 0.16342255
0.18956354 0.27434954 0.036642443 0.37940386 -0.04187396 0.26586744 -0.0981902 -0.14040324

sequential_3/dense_8/MatMul_bias f4 [16]
00000000: 0000 0000 0219 16bf 7989 593f 286a cabd
00000010: e7f3 ed3d dfda ef3d 0000 0000 0aa1 fb3d
00000020: 0000 0000 03ca 4fbd 898c cd3d 7848 e6bd
00000030: 8cc4 afbc 0c06 a4bd 7a31 8abd 8707 7dbd
0.0 -0.5863191 0.8497539 -0.09883529 0.11618786 0.11711668 0.0 0.12286575
0.0 -0.050729763 0.100365706 -0.11244291 -0.021456026 -0.08008966 -0.06747718 -0.061774757

sequential_3/dense_9/MatMul/ReadVariableOp/transpose f4 [1, 16]
00000000: d62e aabe 804b 823f 4008 8c3f 7a07 99be
00000010: e937 e03e 534f 033d 0ca8 a03e 7b20 c8bf
00000020: 4068 043e 6685 d2be 5bb8 663e 7229 cebe
00000030: a99d 003e 86e6 dcbe ca73 01bf d99a 9cbd
-0.33238858 1.0179291 1.0940018 -0.29888517 0.43792656 0.03205807 0.3137821 -1.5634912
0.12930393 -0.411174 0.22531264 -0.40265995 0.12560143 -0.43144625 -0.50567305 -0.07646722
